note book/LeNet/results/LeNet.pth (torch, 250533 bytes, 10 tensors)

conv1.weight f4 [6, 1, 5, 5]
0.21948417 -0.34137923 -0.7069809 0.606373 0.89310604 0.19352281 -1.2943437 -2.0937667
-0.30144647 0.82272553 0.740712 -1.0668105 -2.0863452 -0.32897112 0.64982706 0.9740289
-0.36480063 -1.2252742 -0.051594533 0.62429655 1.0157723 0.24507467 -0.3987258 0.05833491
0.6639487 -0.18351056 0.38809672 0.95631844 0.88363206 0.25433943 1.3946754 3.5635328
3.3671105 3.0411587 0.93128645 1.1229697 3.9204483 4.0593266 3.9324102 0.85137546
0.08242631 1.4370412 3.2038338 2.424368 0.33617043 -0.5655766 -0.39351964 0.5536204
0.45948833 -0.22755341 0.79395765 0.21595196 -0.58561116 -0.44626534 0.48928696 0.9630548
0.15691386 -0.6973105 -0.39774984 0.0958019 0.8267045 -0.06816198 -0.98152775 -0.76279205
0.001558186 0.6219394 -0.01557743 -0.90118796 -0.6066246 0.3900623 1.0332239 -0.0750153
-0.63861346 -0.38470095 0.25577638 -0.8112721 -1.7507045 -1.9805728 -0.5065677 0.18899535
-1.4396006 -4.6965485 -5.3720307 -1.6945387 0.2757844 -0.68313676 -2.31484 -3.2111862
-1.0887171 0.05792222 0.26456398 -0.21728006 -0.3059443 -0.07612508 0.06668277 0.92280453
0.62991905 0.3259558 0.52180266 0.8276242 0.5053513 0.8009079 0.5993756 0.7221646
0.7663169 -0.48043656 -0.9820087 -1.5450968 -0.7826378 0.5550445 -0.8640447 -2.6605887
-3.8647754 -1.3843211 0.36119226 0.10004452 -0.33352804 -1.0292938 -0.6033782 0.04828295
0.63097036 0.43677017 -0.18844298 0.20165233 0.697579 -0.21881568 0.19568525 0.5907528
0.7543608 0.15152235 1.594541 3.5513363 3.72933 2.1790607 0.10978976 1.0463537
4.0004554 4.707226 3.2135355 0.0070339674 -0.06280338 1.2383559 2.865427 1.5875587
-0.17553326 -0.83350503 -0.2953977 0.12500231 0.28543317 -0.17855495
00000000: 75c0 603e 42c9 aebe b3fc 34bf 433b 1b3f
00000010: 99a2 643f d82a 463e 0ead a5bf 4600 06c0
00000020: 3157 9abe 249e 523f 4d9f 3d3f 3f8d 88bf
00000030: ae86 05c0 e76e a8be 115b 263f f559 793f
00000040: 26c7 babe c9d5 9cbf ca54 53bd e6d1 1f3f
00000050: d404 823f dbf4 7a3e ca25 ccbe 96f0 6e3d
00000060: 8bf8 293f 31ea 3bbe 9db4 c63e 49d1 743f
00000070: b635 623f c738 823e b984 b23f ec10 6440
00000080: bd7e 5740 58a2 4240 ca68 6e3f 79bd 8f3f
00000090: a0e8 7a40 01e6 8140 9cac 7b40 bef3 593f
000000a0: 20cf a83d f7f0 b73f 9d0b 4d40 d828 1b40
000000b0: 881e ac3e a1c9 10bf 687b c9be 11ba 0d3f
000000c0: 0e42 eb3e c303 69be cf40 4b3f 8322 5d3e
000000d0: 9dea 15bf e47c e4be d283 fa3e c28a 763f
000000e0: 07ae 203e f182 32bf dea5 cbbe c933 c43d
000000f0: e8a2 533f 8298 8bbd 6745 7bbf 5746 43bf
00000100: 0c3c cc3a 6c37 1f3f 7a38 7fbc 41b4 66bf
00000110: c04b 1bbf 3fb6 c73e ae40 843f 9fa1 99bd
00000120: 2c7c 23bf 86f7 c4be 1ff5 823e 87af 4fbf
00000130: 1617 e0bf 6983 fdbf 6cae 01bf ff87 413e
00000140: d544 b8bf 204a 96c0 ade7 abc0 a5e6 d8bf
00000150: 9d33 8d3e 0de2 2ebf 5726 14c0 1384 4dc0
00000160: 155b 8bbf da3f 6d3d ee74 873e aa7e 5ebe
00000170: bba4 9cbe 77e7 9bbd fa90 883d eb3c 6c3f
00000180: 6042 213f aee3 a63e dc94 053f 2edf 533f
00000190: b45e 013f 4d08 4d3f ae70 193f c7df 383f
000001a0: 582d 443f c8fb f5be ec64 7bbf bbc5 c5bf
000001b0: f35a 48bf 6517 0e3f 0932 5dbf 1647 2ac0
000001c0: 7b58 77c0 6f31 b1bf 31ee b83e 24e4 cc3d
000001d0: 30c4 aabe e6bf 83bf fe76 1abf 58c4 453d
000001e0: 4687 213f 57a0 df3e 32f7 40be f37d 4e3e
000001f0: 8a94 323f 3811 60be b761 483e 933b 173f
00000200: ca1d 413f ad28 1b3e eb19 cc3f 1849 6340
00000210: 58ad 6e40 bb75 0b40 74d9 e03d ebee 853f
00000220: bb03 8040 98a1 9640 91aa 4d40 327d e63b
00000230: 0f9f 80bd 7282 9e3f 2863 3740 2035 cb3f
00000240: febe 33be 9660 55bf 5e3e 97be 9b00 003e
00000250: 4c24 923e 1cd7 36be

conv1.bias f4 [6]
-0.2819296 -0.5039412 0.074200004 0.4292225 0.6089251 -0.53866696
00000000: 1459 90be 4a02 01bf 2cf6 973d 0dc3 db3e
00000010: 84e2 1b3f 14e6 09bf

conv3.weight f4 [16, 6, 5, 5]
-0.23561423 0.31963918 1.4034518 0.49651098 -0.24024783 -0.46160075 -0.50468165 0.5546543
0.3801515 -0.037991874 -0.48113203 -0.7149185 0.23084232 0.36873606 0.05355093 -0.29500106
-0.7813133 0.042081706 0.21083833 -0.020182047 -0.22051905 -0.34593484 0.23284993 0.21413487
-0.29431367 0.15538271 -0.112725474 -0.29358593 -0.2218208 0.18056338 0.31210244 0.10541055
-0.16226819 -0.08282557 0.1587986 0.3857759 0.07023161 -0.06213305 -0.084600314 -0.05313547
0.31546688 0.016262427 -0.17667818 -0.21767388 -0.058585487 0.1598824 -0.10631209 -0.24168964
-0.32512352 -0.09005992 -0.24851036 0.5038643 0.8228183 -0.45100406 -0.45769846 -0.6972476
0.20208263 0.8721853 -0.06668709 -0.4125644 -0.884444 0.07466228 0.7316035 0.19588594
-0.20251507 -0.7648144 -0.023393817 0.593611 0.015142935 -0.37984866 -0.31457078 0.31249416
0.6125807 -0.17176814 -0.54532146 -0.24541864 0.19308586 1.1022786 0.8094174 -0.16809128
-0.2983867 -0.14692344 0.40784478 0.44654602 -0.08735687 -0.5019563 -0.2633124 0.20813759
0.5413616 0.07605591 -0.36185744 -0.21745029 0.36677366 0.797229 0.39793253 -0.40405333
-0.16886914 0.4763943 0.7659803 0.1308392 -0.42336166 -0.046562392 0.94314545 0.3556284
-0.435166 -0.57362574 -0.555725 0.14349739 0.33195746 -0.18539473 -0.53817904 -0.5022132
0.15023953 0.2976499 0.11107284 -0.5377812 -0.5252597 0.004268641 0.15695283 -0.073171094
-0.6541726 0.08290117 0.6442106 0.7648278 -0.24438828 0.2782172 0.0842775 -0.31769383
-0.1940427 0.16850385 0.2422235 0.19249874 -0.16615844 -0.09868189 0.10809214 0.32073995
0.14556448 -0.031612843 -0.18631792 0.10154268 0.33606833 -0.0017508459 -0.21365938 -0.2945494
-0.09912504 0.21092494 0.053985976 -0.2945086 -0.2994614 -0.058425397 0.06724922 0.27981037
0.5149702 0.05087422 -0.18086573 -0.28494778 0.11626223 0.39766806 0.18989731 0.01513889
-0.62604564 -0.20527437 0.38291645 0.23540518 -0.10975438 -0.5447242 -0.35840893 0.2614909
0.39963487 -0.25261456 -0.36076474 -0.06707863 0.38225517 0.5057376 -0.5272643 0.05215664
-0.1315068 -0.20804264 -0.13013686 0.028305147 0.21378005 -0.13884754 -0.3161379 -0.14692123
0.005067921 0.2643045 0.020618998 -0.2964968 -0.22828685 0.053681057 0.23928235 -0.1992993
-0.40876415 -0.23056035 0.00017741445 0.1417673 -0.1836235 -0.39563927 -0.18508513 -0.08383346
0.007607285 0.23712385 0.19346264 -0.20496216 -0.09187734 -0.239345 0.36505362 0.3424388
0.019752627 -0.1731843 -0.3978474 0.3199334 0.4092707 0.20543776 -0.24472378 -0.30096596
0.24829379 0.45158055 0.16120176 -0.5209827 -0.114895746 0.31840906 0.43040696 0.022096353
-0.6407673 -0.1368296 0.27736342 0.37689283 0.2058676 -0.08327584 -0.19961776 0.1855259
0.4520468 0.31594345 -0.09423397 -0.3981693 -0.0015388828 0.4052061 0.38099426 -0.12197765
-0.3166536 -0.014482315 0.5877844 0.56261957 0.043405924 -0.35870084 0.008315984 0.65599275
0.6157256 -0.20513205 -0.11205483 0.23774742 0.3059335 0.011845461 -0.24096903 -0.31671017
00000000: db44 71be bfa7 a33e 4fa4 b33f b036 fe3e
00000010: 8703 76be ef56 ecbe d132 01bf d3fd 0d3f
00000020: 38a3 c23e 5e9d 1bbd f056 f6be e604 37bf
00000030: ee61 6c3e f9ca bc3e 3858 5b3d 610a 97be
00000040: 2604 48bf de5d 2c3d 01e6 573e d254 a5bc
00000050: bfcf 61be 5f1e b1be 3670 6e3e 2c46 5b3e
00000060: 48b0 96be a51c 1f3e 9ddc e6bd e550 96be
00000070: fe24 63be 9be5 383e e4cb 9f3e 7de1 d73d
00000080: a229 26be 74a0 a9bd 1a9c 223e 6b84 c53e
00000090: 97d5 8f3d 3a7f 7ebd ee42 adbd 94a4 59bd
000000a0: e084 a13e c838 853c 20eb 34be e7e5 5ebe
000000b0: 56f7 6fbd 36b8 233e 27ba d9bd 7d7d 77be
000000c0: 9776 a6be 5671 b8bd 8079 7ebe 40fd 003f
000000d0: 38a4 523f 01ea e6be 7457 eabe d27e 32bf
000000e0: c0ee 4e3e 8947 5f3f 3e93 88bd a43b d3be
000000f0: ec6a 62bf 8ae8 983d 5e4a 3b3f 5396 483e
00000100: 1c60 4fbe e0ca 43bf 64a4 bfbc e4f6 173f
00000110: 131a 783c 867b c2be 6c0f a1be 3cff 9f3e
00000120: 17d2 1c3f fde3 2fbe 309a 0bbf 064f 7bbe
00000130: 4db8 453e 7717 8d3f fb35 4f3f 1f20 2cbe
00000140: 24c6 98be 1973 16be 08d1 d03e aea1 e43e
00000150: 29e8 b2bd 3580 00bf e2d0 86be 0522 553e
00000160: ac96 0a3f 33c3 9b3d 6145 b9be 4aab 5ebe
00000170: c2c9 bb3e 3317 4c3f d0bd cb3e 14e0 cebe
00000180: 08ec 2cbe f4e9 f33e 4917 443f b6fa 053e
00000190: dcc2 d8be 35b8 3ebd fb71 713f ed14 b63e
000001a0: 14ce debe 23d9 12bf fe43 0ebf fbf0 123e
000001b0: 54f6 a93e 1ed8 3dbe 1ac6 09bf 0b91 00bf
000001c0: 64d8 193e 9165 983e 287a e33d 07ac 09bf
000001d0: 6b77 06bf f5df 8b3b 3eb8 203e bada 95bd
000001e0: db77 27bf 17c8 a93d fcea 243f c1cb 433f
000001f0: ec40 7abe 7c72 8e3e af99 ac3d c4a8 a2be
00000200: 21b3 46be 468c 2c3e 7009 783e 641e 453e
00000210: 7025 2abe bb19 cabd 695f dd3d 0738 a43e
00000220: db0e 153e 787c 01bd 20ca 3ebe 9cf5 cf3d
00000230: 2611 ac3e a47c e5ba 86c9 5abe 2ecf 96be
00000240: 1202 cbbd b5fc 573e 6620 5d3d d5c9 96be
00000250: 0153 99be 784f 6fbd f6b9 893d 4e43 8f3e
00000260: 16d5 033f 7c61 503d de34 39be ade4 91be
00000270: e41a ee3d 269b cb3e 7174 423e 1b09 783c
00000280: 8744 20bf 7233 52be a00d c43e 0e0e 713e
00000290: e8c6 e0bd 0c73 0bbf 6081 b7be 23e2 853e
000002a0: f19c cc3e b256 81be 28b6 b8be 8560 89bd
000002b0: f3b6 c33e 0578 013f cbfa 06bf 33a2 553d
000002c0: b8a9 06be 2109 55be 9942 05be 32e0 e73c
000002d0: 28e9 5a3e 0d2e 0ebe d4dc a1be 8572 16be
000002e0: cd10 a63b eb52 873e 2ce9 a83c 6ece 97be
000002f0: 07c4 69be abe0 5b3d 6f06 753e 1e15 4cbe
00000300: 8949 d1be 0318 6cbe 5408 3a39 722b 113e
00000310: cc07 3cbe 3b91 cabe f586 3dbe e1b0 abbd
00000320: 8846 f93b 98d0 723e 121b 463e 9ae1 51be
00000330: 302a bcbd db16 75be 4fe8 ba3e 2354 af3e
00000340: 43d0 a13c 3a57 31be a8b2 cbbe 50ce a33e
00000350: ee8b d13e 475e 523e df98 7abe 3618 9abe
00000360: ba40 7e3e 9135 e73e 1312 253e 1f5f 05bf
00000370: 764e ebbd 8306 a33e 4d5e dc3e 6903 b53c
00000380: 5309 24bf 0f1d 0cbe 9402 8e3e 19f8 c03e
00000390: f5ce 523e 868c aabd 9968 4cbe 80fa 3d3e
000003a0: ae72 e73e 57c3 a13e bdfd c0bd d9dc cbbe
000003b0: 57b4 c9ba 2d77 cf3e ae11 c33e 6bcf f9bd
000003c0: 6c20 a2be 3b47 6dbc 0a79 163f d607 103f
000003d0: 69ca 313d a3a7 b7be c43f 083c 24ef 273f
000003e0: 31a0 1d3f 230e 52be 017d e5bd 0f74 733e
000003f0: 51a3 9c3e 7713 423c 96c0 76be d627 a2be

conv3.bias f4 [16]
0.08152567 -0.020675223 -0.018512499 -0.073985696 0.027518563 -0.09048304 0.02788027 -0.022904733
-0.055107687 -0.016694821 0.027100513 -0.008104268 0.11258662 0.021012958 -0.1308767 -0.07228358
00000000: eef6 a63d 165f a9bc 86a7 97bc d085 97bd
00000010: 9c6e e13c 2c4f b9bd 2a65 e43c b5a2 bbbc
00000020: 99b8 61bd 94c3 88bc e501 de3c c4c7 04bc
00000030: d093 e63d 5e23 ac3c 8b04 06be 6a09 94bd

f5.weight f4 [120, 400]
-0.19770297 -0.06826163 -0.24428515 0.32539883 -0.0112241 -0.18941054 -0.053564508 -0.044957254
0.10929273 0.012060401 -0.29546195 0.17302443 0.20663469 -0.2660129 0.21375911 -0.32579586
0.27367982 0.35450956 -0.05313225 0.18515435 -0.27180043 0.21461849 0.1544123 -0.0314946
-0.33355027 -0.17765225 -0.14303525 -0.33300656 0.24110708 -0.09167559 -0.2596281 -0.20671809
-0.17620486 0.17650539 -0.09782887 -0.33092397 0.17765237 0.14411145 0.0018061973 0.17657879
-0.2968117 0.3944306 0.21418515 0.0337242 0.1719356 -0.25418863 0.16004427 0.21972933
0.11153375 -0.42615083 -0.08997045 0.09062999 0.08082468 0.11989047 0.00087970943 -0.16168644
-0.03912432 0.16784632 0.075555645 0.055247735 -0.1495525 -0.116941646 0.0676087 -0.07242159
-0.024910606 -0.102492295 0.021773452 0.04421955 0.029981503 0.06478688 0.017875096 -0.08899869
0.035756137 -0.030029219 -0.019047093 -0.08186855 0.011736012 0.097716935 0.079105474 0.007627872
-0.21095075 -0.0289027 0.15805823 0.12018931 0.0067159594 -0.16240846 -0.010419276 0.071150005
-0.1431803 0.1530691 0.11527358 -0.105246395 0.045731682 -0.22272766 0.16895601 0.04605262
-0.12211757 0.14455697 -0.181102 -0.035833925 -0.14438495 -0.0335264 -0.16697519 0.09838051
-0.076247774 -0.16372055 -0.14853474 -0.12578405 0.14856823 0.012913473 -0.15177378 -0.06467366
0.077191934 -0.104250036 0.2036538 -0.15138108 0.2133821 0.1102025 -0.1404256 0.14530715
-0.22851917 0.055682067 0.2606795 -0.06362292 -0.29183117 -0.06091244 0.05800177 0.07244902
-0.17291869 -0.012476445 0.14074448 0.14264101 0.013119015 0.005321723 -0.078146376 0.258026
-0.017461417 -0.059461158 0.07028622 -0.48303795 0.13448407 -0.076519124 -0.06561263 0.058350865
-0.31542307 0.3158851 -0.048610326 -0.08371127 0.21178089 0.610536 0.19756877 -0.039032362
0.21395165 -0.07119608 -0.092200756 0.3930479 0.20311847 0.12147294 -0.20777826 0.15662344
0.29386407 0.17139465 -0.008560078 -0.15345757 0.112220675 -0.055016153 0.08152192 -0.06387066
-0.09117613 0.03616468 -0.022224007 0.047020137 -0.071791634 -0.14513423 0.22834006 -0.075099975
0.020998174 0.118381865 0.08020548 0.04524955 -0.13852227 -0.05369885 0.13621244 0.0941076
0.034584165 -0.18920535 -0.018388059 0.039463475 0.017612597 0.07125212 -0.025725976 -0.06849359
0.16731565 0.026617704 -0.056356706 -0.01812438 -0.033060916 0.19013108 -0.09333349 -0.07584754
0.26267394 -0.699819 -0.0011840682 0.37262836 0.82539415 0.742424 -0.60357445 0.05381651
-0.31743708 0.8609853 0.30289698 -0.24028525 0.07219838 -0.0007510069 0.06142568 -0.48207867
-0.19570933 -0.17274098 -0.15978579 -0.52358305 -0.3244778 0.16338573 0.059559803 0.05242968
-0.24848564 0.26489988 -0.32551104 -0.22285973 -0.016528094 -0.032731086 -0.02783198 0.20212147
-0.09282936 -0.1211237 -0.16956946 0.8438156 0.3611663 -0.011619472 0.022063393 0.27516213
0.9391598 0.2814763 -0.1738226 0.04005993 0.24513349 -0.18628387 0.20501564 -0.38083032
-0.27805638 0.11090023 -0.14861174 -0.12274318 -0.17584601 0.12633407 -0.0146283265 -0.17899297
00000000: a672 4abe c1cc 8bbd e325 7abe ad9a a63e
00000010: 4ae5 37bc d6f4 41be 7566 5bbd 1925 38bd
00000020: ded4 df3d fd98 453c ca46 97be 512d 313e
00000030: 0b98 533e d832 88be abe3 5a3e b7ce a6be
00000040: c31f 8c3e 4782 b53e 34a1 59bd 1a99 3d3e
00000050: 6d29 8bbe f3c4 5b3e 421e 1e3e 7b00 01bd
00000060: 1ac7 aabe 79ea 35be d577 12be d67f aabe
00000070: c6e4 763e 69c0 bbbd f9ed 84be e8ad 53be
00000080: 0c6f 34be d4bd 343e 815a c8bd de6e a9be
00000090: 81ea 353e f491 133e edbd ec3a 12d1 343e
000000a0: b4f7 97be cff2 c93e 5a53 5b3e 6322 0a3d
000000b0: e30f 303e 0325 82be a5e2 233e ba00 613e
000000c0: cf6b e43d 7130 dabe 6d42 b8bd 379c b93d
000000d0: 6987 a53d 2289 f53d 4d9c 663a 2191 25be
000000e0: d340 20bd e8df 2b3e ebbc 9a3d 734b 623d
000000f0: 4a24 19be 1a7f efbd 6e76 8a3d c551 94bd
00000100: 5411 ccbc 7be7 d1bd 3d5e b23c 8f1f 353d
00000110: c59b f53c fcae 843d cb6e 923c f244 b6bd
00000120: 0775 123d d6ff f5bc a608 9cbc b3aa a7bd
00000130: 6748 403c d11f c83d 0d02 a23d 3af3 f93b
00000140: 7903 58be 5bc5 ecbc 04da 213e d025 f63d
00000150: 8d11 dc3b 674e 26be 9cb5 2abc 18b7 913d
00000160: db9d 12be 25be 1c3e 8e14 ec3d 6c8b d7bd
00000170: 2551 3b3d b812 64be ce02 2d3e aca1 3c3d
00000180: c718 fabd be06 143e cd72 39be 98c6 12bd
00000190: a6d9 13be fa52 09bd 8bfb 2abe b97b c93d
000001a0: cb27 9cbd 5ca6 27be 7e19 18be 89cd 00be
000001b0: 4522 183e 0893 533c 966a 1bbe a073 84bd
000001c0: ce16 9e3d 0b81 d5bd 9f8a 503e a403 1bbe
000001d0: d680 5a3e d9b1 e13d bacb 0fbe 66cb 143e
000001e0: ee00 6abe e112 643d c977 853e bc4c 82bd
000001f0: e56a 95be 537f 79bd 4493 6d3d 2760 943d
00000200: 9911 31be 016a 4cbc 521f 103e 7c10 123e
00000210: 23f1 563c d961 ae3b 350b a0bd fc1b 843e
00000220: 3f0b 8fbc 8b8d 73bd 39f2 8f3d c050 f7be
00000230: 31b6 093e 0fb6 9cbd ea5f 86bd 5101 6f3d
00000240: 227f a1be b1bb a13e 9f1b 47bd d070 abbd
00000250: 17dd 583e 164c 1c3f 784f 4a3e 66e0 1fbd
00000260: 2416 5b3e 40cf 91bd c0d3 bcbd 933d c93e
00000270: 4afe 4f3e cec6 f83d d3c3 54be e561 203e
00000280: 5a75 963e 1482 2f3e 923f 0cbc fb23 1dbe
00000290: f4d3 e53d 9e58 61bd f7f4 a63d 9fce 82bd
000002a0: 8dba babd 6a21 143d 1f0f b6bc 3098 403d
000002b0: 7e07 93bd 119e 14be fad1 693e 04ce 99bd
000002c0: 5d04 ac3c 3172 f23d c542 a43d 9857 393d
000002d0: c8d8 0dbe 53f3 5bbd 467b 0b3e 7cbb c03d
000002e0: 20a8 0d3d 0cbf 41be 8ea2 96bc 74a4 213d
000002f0: 4b48 903c a2ec 913d 48bf d2bc 5e46 8cbd
00000300: cb54 2b3e 5f0d da3c 4ad6 66bd 9479 94bc
00000310: e26a 07bd b9b1 423e a125 bfbd f455 9bbd
00000320: 337d 863e 5727 33bf bc32 9bba 25c9 be3e
00000330: 084d 533f 800f 3e3f db83 1abf b36e 5c3d
00000340: 1d87 a2be 8869 5c3f 5015 9b3e 560d 76be
00000350: bfdc 933d 38df 44ba 7e99 7b3d 04d3 f6be
00000360: 0768 48be 03e3 30be e39e 23be 8a09 06bf
00000370: f421 a6be 974e 273e fbf4 733d 81c0 563d
00000380: 0573 7ebe f5a0 873e 62a9 a6be 5735 64be
00000390: ed65 87bc 0811 06bd e4ff e3bc eef8 4e3e
000003a0: 521d bebd b40f f8bd 9ea3 2dbe 4d04 583f
000003b0: caea b83e 995f 3ebc 4abe b43c 0de2 8c3e
000003c0: c76c 703f a91d 903e 8dfe 31be e215 243d
000003d0: 4604 7b3e 33c1 3ebe 9fef 513e 31fc c2be
000003e0: 685d 8ebe a91f e33d ad2d 18be c760 fbbd
000003f0: fa10 34be b85d 013e a6ab 6fbc ef49 37be

f5.bias f4 [120]
-0.026689488 -0.037519395 0.052286424 -0.008939877 -0.0647593 0.060796756 -0.02400619 0.046227686
0.014776356 0.044697862 -0.024671761 -0.03948825 -0.016474491 0.027470205 -0.0067527015 -0.0049089952
0.0076640453 -0.04575697 0.020099042 0.020419726 0.03881219 -0.04153513 0.010777721 -0.06281211
-0.0040917117 0.018765217 0.011275287 -0.050881486 -0.006045128 0.042006973 -4.530814e-05 -0.012899314
-0.0075849607 -0.07239923 -0.004772588 0.047610004 -0.0028511651 0.014494342 0.0006167098 -0.010502273
0.041637972 0.013858437 -0.015474206 0.027860712 -0.018425092 0.072689846 0.06392137 -0.0023161895
-0.012951047 0.06889295 -0.019119214 -0.037097342 0.027850349 0.057019126 -0.014306207 0.0042345906
0.021069404 0.039763086 -0.030249491 0.009437764 0.071413256 -0.06508565 0.038588237 0.05132387
-0.00020772722 -0.015528566 -0.025292989 -0.034319952 0.043001294 -0.02815941 0.001712148 -0.001217859
-0.026784843 0.0393855 0.07022277 -0.072996035 0.0010396567 0.019873954 0.012542862 -0.08704936
-0.06450036 -0.05697771 -0.03965475 -0.034476794 0.037184995 0.038997132 -0.026094764 0.003024748
0.033371367 -0.012181216 -0.011418841 -0.09080973 0.022895005 0.056076355 -0.042609334 -0.03557948
-0.050119642 0.041589085 -0.036996607 -0.024028815 -0.058216076 0.023446394 0.055389278 0.03235249
-0.022233117 -0.016604794 -0.006869183 -0.007171693 0.052326053 -0.017253894 -0.05982564 0.05403158
0.03463811 0.034569036 -0.017182175 0.03457149 -0.012803544 0.0030797506 0.024722295 -0.079824105
00000000: eaa3 dabc f0ad 19bd 4a2a 563d 9078 12bc
00000010: 86a0 84bd 0506 793d a1a8 c4bc 3e59 3d3d
00000020: 8718 723c 1b15 373d 6f1c cabc 6ebe 21bd
00000030: 83f5 86bc 3209 e13c c445 ddbb a3db a0bb
00000040: ac22 fb3b a96b 3bbd bfa6 a43c 4547 a73c
00000050: 88f9 1e3d be20 2abd 0a95 303c a3a3 80bd
00000060: c413 86bb 83b9 993c fbbb 383c 1b69 50bd
00000070: 3616 c6bb 810f 2c3d 3f09 3eb8 a557 53bc
00000080: 438b f8bb 0c46 94bd 5f63 9cbb b502 433d
00000090: 9dda 3abb ad79 6d3c b2aa 213a ba11 2cbc
000000a0: 948c 2a3d 7f0e 633c 8687 7dbc 263c e43c
000000b0: 38f0 96bc 6ade 943d 35e9 823d 36cb 17bb
000000c0: a130 54bc bf17 8d3d e69f 9cbc 62f3 17bd
000000d0: 6a26 e43c e38c 693d 9564 6abc 52c2 8a3b
000000e0: be99 ac3c 9ede 223d c8cd f7bc daa0 1a3c
000000f0: 1d41 923d a04b 85bd b30e 1e3d fa38 523d
00000100: 5ad1 59b9 876b 7ebc 3e33 cfbc 1493 0cbd
00000110: 2022 303d 90ae e6bc 276a e03a 91a0 9fba
00000120: e36b dbbc b152 213d f5d0 8f3d f27e 95bd
00000130: 1745 883a b4ce a23c 9480 4d3c ef46 b2bd
00000140: c418 84bd 7661 69bd 056d 22bd 8a37 0dbd
00000150: 4b4f 183d 75bb 1f3d b0c4 d5bc da3a 463b
00000160: 6ab0 083d b993 47bc 1716 3bbc 74fa b9bd
00000170: 4e8e bb3c 52b0 653d 2087 2ebd cabb 11bd
00000180: 414a 4dbd 5159 2a3d c189 17bd 14d8 c4bc
00000190: fb73 6ebd a712 c03c dedf 623d 0b84 043d
000001a0: 3a22 b6bc c706 88bc e216 e1bb 8500 ebbb
000001b0: d853 563d 0a58 8dbc bb0b 75bd 3850 5d3d
000001c0: b1e0 0d3d 4398 0d3d a2c1 8cbc d69a 0d3d
000001d0: f5c5 51bc a4d5 493b 6986 ca3c d27a a3bd

f6.weight f4 [84, 120]
0.013909475 -0.0051867734 0.13566469 0.25000626 0.008628083 -0.017202782 -0.07635093 0.13726668
0.03477168 0.118560076 -0.12985206 0.30331364 0.0944992 -0.27135676 0.12529589 0.7230937
0.028759995 -0.053217433 -0.16727723 -0.31338716 0.14487131 -0.11496023 0.062067498 0.53239936
-0.041417997 -0.1442105 0.028387032 -0.061318383 0.1626848 0.09025084 -0.10144704 0.48923445
0.12884118 -0.26912367 -0.23944035 -0.279389 0.50035447 -0.31885415 0.048257314 -0.076198414
-0.66148156 -0.33339512 0.26214248 -0.43167105 0.086970985 0.054153297 -0.09061072 0.0054214676
0.15134129 0.14141363 0.23343992 0.06482966 -0.052688472 0.12386443 0.17915991 0.42836726
0.05866237 0.1570188 0.050267175 0.37873796 -0.12655073 0.43753716 0.06369323 0.05851166
0.18619964 -0.13386966 -0.12314047 0.013017293 -0.29762357 -0.19922741 -0.13302697 0.9193711
0.29648003 -0.19113728 -0.29618236 -0.2314638 0.062131178 0.29170644 0.102723055 0.42226857
-0.38657534 0.21617027 0.3094858 0.20547809 0.09608129 -0.24412097 -0.26264748 -0.3450639
0.45865816 -0.38637918 -0.09221767 0.683509 -0.20719968 -0.17893253 0.07950839 0.22291978
-0.15002269 -0.5298013 0.3824812 -0.21146668 -0.25032833 0.3132178 -0.24596246 -0.15341736
0.2643932 0.04618531 0.38392088 -0.27274707 -0.25741717 0.02729767 0.027922051 0.5240977
-0.37114257 0.16641107 0.25495866 -0.059977666 0.14945109 -0.06529526 -0.17284687 0.17043005
0.14836499 -0.5344584 -0.025402626 -0.31634024 -0.00019162739 -0.09616659 -0.1321268 -0.34781656
0.11432758 -0.5674192 0.46559632 -0.018916905 -0.49149188 -0.060547374 -0.009201576 -0.59341484
-0.14835529 0.26629072 -0.52327836 -0.24062264 0.07721824 0.19281578 -0.60674024 -0.29329857
0.18519087 0.39786163 -0.48195225 0.048685268 0.29054153 0.046769578 -1.0432885 0.07023323
0.1786462 0.20645764 -0.30578557 -0.08919919 -0.26078075 -0.10344005 0.18704182 -0.2509243
-0.27716973 -0.15570481 0.1616878 0.062486213 0.46020803 -0.13876879 -0.06724837 0.44128066
-0.073306836 0.024769492 -0.018025504 0.30830488 0.22656901 0.15173754 0.1520326 -0.38742563
-0.6823267 0.15739849 0.3865605 -0.038352326 0.15104231 0.099294014 0.16474006 0.10245366
-0.03779549 0.012429191 0.51659614 0.14363305 -0.021200474 -0.051920425 -0.25066906 0.04440237
-0.3482833 -0.30542743 0.076747686 -0.46385333 -0.13073947 0.054068238 0.0904925 0.2339082
0.56072575 0.13275543 0.027669106 -0.020774813 0.06864723 -0.27804437 0.31209424 0.6153001
-0.042754713 -0.12564564 -0.22428213 0.5416363 -0.19376943 -0.12789282 0.07152753 -0.2793525
0.56758463 0.07643935 -0.21869346 0.5779033 0.2606578 0.015271865 -0.45683065 -0.28567988
-0.14035094 -0.62569535 0.5338038 -0.21180272 -0.36829317 -0.04775929 0.22751035 -0.078779295
0.12888698 0.19024701 -0.3999923 -0.25204265 0.044483572 0.040391427 -0.22030975 0.43293923
-0.25026837 0.10456371 0.047298584 -0.043972116 0.10403749 0.010913896 -0.07913431 0.11548809
0.01027712 0.15581842 -0.14834404 0.39963797 -0.22360983 -0.29194158 0.11798226 0.4270062
00000000: 91e4 633c cff5 a9bb afeb 0a3e d200 803e
00000010: ce5c 0d3c d9ec 8cbc e05d 9cbd a38f 0c3e
00000020: c06c 0e3d a0cf f23d f0f7 04be ed4b 9b3e
00000030: cc88 c13d 46ef 8abe 914d 003e ab1c 393f
00000040: 159a eb3c 86fa 59bd b94a 2bbe 4874 a0be
00000050: 2559 143e 4570 ebbd 7d3a 7e3d 534b 083f
00000060: eba5 29bd ebab 13be ec8b e83c fc28 7bbd
00000070: d896 263e 6fd5 b83d 77c3 cfbd f07c fa3e
00000080: f1ee 033e 94ca 89be da2f 75be 130c 8fbe
00000090: 3b17 003f da40 a3be 76a9 453d ea0d 9cbd
000000a0: db56 29bf c4b2 aabe 8a37 863e fd03 ddbe
000000b0: d81d b23d d9cf 5d3d 1d92 b9bd 91a6 b13b
000000c0: 36f9 1a3e bcce 103e e00a 6f3e 6ac5 843d
000000d0: decf 57bd a2ac fd3d b275 373e f452 db3e
000000e0: f447 703d 89c9 203e f4e4 4d3d f1e9 c13e
000000f0: 8496 01be df04 e03e 9971 823d eca9 6f3d
00000100: 1eab 3e3e 2115 09be 1231 fcbd 7c46 553c
00000110: 1e62 98be 4502 4cbe 3938 08be e85b 6b3f
00000120: 3bcc 973e 7eb9 43be 37a5 97be d904 6dbe
00000130: 437d 7e3d 8c5a 953e 7760 d23d 9633 d83e
00000140: 34ed c5be bd5b 5d3e ec74 9e3e d968 523e
00000150: 44c6 c43d d9fa 79be bb79 86be 37ac b0be
00000160: 3ed5 ea3e 7ed3 c5be 9edc bcbd 72fa 2e3f
00000170: 272c 54be 173a 37be 4bd5 a23d 1545 643e
00000180: 8c9f 19be 0fa1 07bf 93d4 c33e b98a 58be
00000190: 092b 80be 155e a03e 95dd 7bbe 7119 1dbe
000001a0: 8c5e 873e cf2c 3d3d 4791 c43e 81a5 8bbe
000001b0: 2fcc 83be 5d9f df3c c9bc e43c 442b 063f
000001c0: 6606 bebe aa67 2a3e f189 823e 24ab 75bd
000001d0: b509 193e 85b9 85bd c5fe 30be 3785 2e3e
000001e0: feec 173e 44d2 08bf 2b19 d0bc 59f7 a1be
000001f0: 96ef 48b9 fdf2 c4bd 3f4c 07be 0315 b2be
00000200: 9424 ea3d 6242 11bf a462 ee3e a0f7 9abc
00000210: d3a4 fbbe 8600 78bd 35c2 16bc 09ea 17bf
00000220: 73ea 17be 4257 883e 92f5 05bf c865 76be
00000230: 9924 9e3d 8071 453e 5453 1bbf 3b2b 96be
00000240: ada2 3d3e 85b4 cb3e 72c2 f6be 346a 473d
00000250: dcc1 943e 7591 3f3d 7a8a 85bf 71d6 8f3d
00000260: 08ef 363e a269 533e ed8f 9cbe 11ae b6bd
00000270: 0e85 85be 60d8 d3bd e487 3f3e 2679 80be
00000280: 31e9 8dbe 1571 1fbe 7d91 253e 8bf1 7f3d
00000290: 63a0 eb3e 6819 0ebe 83b9 89bd 8aef e13e
000002a0: e521 96bd 64e9 ca3c 39aa 93bc 23da 9d3e
000002b0: b501 683e 1661 1b3e 6fae 1b3e a75c c6be
000002c0: f6ac 2ebf 122d 213e 42eb c53e 5417 1dbd
000002d0: d6aa 1a3e a95a cb3d 9eb1 283e 39d3 d13d
000002e0: 72cf 1abd cea3 4b3c a53f 043f 8b14 133e
000002f0: 9eac adbc 83aa 54bd b257 80be 42df 353d
00000300: 3052 b2be fc60 9cbe e42d 9d3d 2f7e edbe
00000310: 91e0 05be a876 5d3d 2254 b93d a285 6f3e
00000320: b98b 0f3f 0af1 073e 52aa e23c f12f aabc
00000330: eb96 8c3d d55b 8ebe d1ca 9f3e 4f84 1d3f
00000340: 911f 2fbd 40a9 00be 37aa 65be ada8 0a3f
00000350: 7e6b 46be 56f6 02be 077d 923d 4a07 8fbe
00000360: 3a4d 113f 3c8c 9c3d 2ef1 5fbe 78f1 133f
00000370: f074 853e d836 7a3c b5e5 e9be a244 92be
00000380: 28b8 0fbe 922d 20bf 5ea7 083f d0e2 58be
00000390: ec90 bcbe 3f9f 43bd 79f8 683e 0a57 a1bd
000003a0: f3fa 033e 1dd0 423e cacb ccbe bc0b 81be
000003b0: 6834 363d 7b71 253d e198 61be 36aa dd3e
000003c0: 2d23 80be 8025 d63d 29bc 413d 1b1c 34bd
000003d0: 9c11 d53d 33d0 323c 2b11 a2bd 0585 ec3d
000003e0: 5e61 283c dd8e 1f3e 80e7 17be 599d cc3e
000003f0: faf9 64be 5e79 95be afa0 f13d 8fa0 da3e

f6.bias f4 [84]
-0.025959766 0.04751461 -0.016445138 -0.004417111 -0.0535037 -0.041061234 0.010621494 0.0075217765
0.030017184 0.07454558 0.030002028 0.052721094 0.10694486 0.02785227 -0.06621118 -0.07475594
0.10588496 0.028356904 0.0125587545 0.0888621 0.061670445 0.12454235 0.09696994 -0.051973853
0.0871268 -0.009182191 0.07188999 -0.026420921 -0.02787012 0.12872954 -0.06267339 0.017841084
-0.060244244 -0.026585128 0.010281093 0.046103116 -0.005873499 0.040386025 0.07129985 -0.018189464
0.042828325 -0.03686899 0.12336419 -0.033144914 0.07632024 -0.008399683 -0.08493739 -0.049122863
0.067313604 -0.07429708 -0.051564917 0.02402364 -0.08863661 0.013052692 0.0983367 -0.027701646
-0.021444786 0.08360435 0.054000597 0.021327464 0.041961484 0.07188052 0.20969178 -0.04268531
-0.027913833 0.034096435 -0.12626436 0.09747812 -0.046816338 0.06819961 0.0391925 0.06250888
-0.06686856 0.102559604 -0.085424356 -0.016377095 0.08358881 0.104345866 0.020963892 -0.063360475
0.016821695 0.0144966375 0.02457626 -0.065274686
00000000: 93a9 d4bc ae9e 423d f4b7 86bc 6abd 90bb
00000010: b226 5bbd d32f 28bd c605 2e3c 3c79 f63b
00000020: 99e6 f53c 5aab 983d d0c6 f53c 13f2 573d
00000030: e805 db3d 722a e43c ba99 87bd a419 99bd
00000040: 37da d83d bd4c e83c 3cc3 4d3c 55fd b53d
00000050: 269a 7c3d 0f10 ff3d 2d98 c63d 89e2 54bd
00000060: 896f b23d e770 16bc 0f3b 933d b070 d8bc
00000070: e14f e4bc add1 033e e85a 80bd 7727 923c
00000080: abc2 76bd 0ec9 d9bc 0872 283c 9fd6 3c3d
00000090: 7b76 c0bb d16b 253d a805 923d 1202 95bc
000000a0: c16c 2f3d f003 17bd 5da6 fc3d f6c2 07bd
000000b0: c94d 9c3d d39e 09bc a8f3 adbd 0e35 49bd
000000c0: b7db 893d 1129 98bd bc35 53bd 3acd c43c
000000d0: 1c87 b5bd f5da 553c c064 c93d 90ee e2bc
000000e0: faac afbc c238 ab3d bb2f 5d3d efb6 ae3c
000000f0: cedf 2b3d 1836 933d 71b9 563e cbd6 2ebd
00000100: 8dab e4bc b4a8 0b3d 724b 01be 9ca2 c73d
00000110: 7dc2 3fbd 3dac 8b3d 5188 203d a804 803d
00000120: 62f2 88bd c50a d23d f7f2 aebd 4229 86bc
00000130: 9c30 ab3d 49b3 d53d 78bc ab3c 23c3 81bd
00000140: a7cd 893c 4e83 6d3c 2754 c93c bcae 85bd

f7.weight f4 [10, 84]
-0.5577109 0.23323731 -0.09860677 -0.3140967 0.36866257 0.0636371 0.23973136 0.005696015
0.081612915 -0.74282587 -0.52833885 -0.098309785 0.08504273 -0.1773459 -0.15415308 -0.21228386
0.21259332 -0.6459306 -0.13206547 0.15615682 -0.5251311 0.14911908 0.31934488 0.18008155
0.18850666 0.2702258 0.17444013 0.2142759 -0.04098419 -0.1387944 0.04399372 0.32783353
0.025988586 -0.6701102 -0.4650111 0.18620619 0.29313886 -0.3082409 -0.6259743 0.39041445
-0.15875912 0.09897175 0.12196951 -0.27328458 -0.32691768 0.17804024 0.09842634 -0.553547
0.34361655 0.21267097 -0.5107567 -0.39117998 0.3484219 -0.16593473 -0.38648602 0.15459372
0.5784848 -0.08059504 0.21556674 0.23831198 -0.45841074 -0.57984537 -0.3304063 -0.69200647
-0.48783764 0.33639532 0.13973434 -0.789192 0.13182703 0.23612684 -0.013170435 0.32269588
-0.47437698 -0.63909227 -0.17006578 0.2214335 -0.034781665 0.32807407 0.18720828 0.21520658
-0.9678574 -0.36925858 0.37832776 0.53272533 -0.010760958 0.1815137 -0.7266558 0.39606094
-0.5829296 0.04155856 0.08309503 -0.50073117 -0.98997724 0.19941908 0.7729265 0.6039982
0.1158404 -0.61393744 -0.12726122 -0.5892485 0.21416037 0.10680498 0.629084 0.23658855
-0.005020063 -0.27968183 0.15693292 -0.04352645 -0.7930337 -0.2603784 -0.7056568 -0.6872513
0.05369403 0.07641532 -0.21397686 -0.46388888 0.13482663 -1.4344534 0.14501326 -0.6857694
-0.085045785 0.45617384 -1.0899582 0.22297241 0.027581368 0.117765084 -0.5396905 -0.06021268
0.13557519 0.17301498 0.14445736 0.9543069 0.18193209 0.102790534 -0.59475565 0.64469606
0.13090831 0.45965403 0.32643804 -0.124642715 0.30723545 -0.46009055 -0.2305674 0.06212857
0.085366875 0.0744143 0.64367974 -0.62652475 0.5993037 0.1558166 -0.7630539 -0.40274647
-0.61545783 -0.13161486 0.3448889 -0.2452549 0.42407975 0.18559931 -0.02892426 -0.90313053
0.36255756 0.6907244 -0.40109378 0.3101463 -0.2560088 -0.8202086 0.15328439 -0.3322555
0.37762412 0.07928034 -0.5170932 -0.3988193 0.089258716 0.19947447 0.14838785 0.16174161
-0.490078 0.22577395 -0.5284063 -0.35366136 0.08036854 -0.90334904 -0.34239906 -0.55406964
0.1502611 0.33453164 -0.75816697 0.10947837 0.005047231 -0.787041 0.30264518 0.13736925
0.1999602 0.071827605 -0.6962729 -0.19813554 -0.04936198 0.21385287 0.054889847 0.36609215
0.12899265 -0.107107624 -0.35135815 0.20156583 0.33604982 -0.2810856 -0.13297944 -0.6700002
0.18691505 0.19492139 -0.68092084 -0.45099658 0.34953174 0.0479107 0.40057096 -0.53470355
0.15263526 0.20780692 -0.53296655 -0.22729068 -1.1610643 0.36694837 0.13818891 -0.0062375213
0.42863706 -0.37953228 -0.32296243 0.15940763 0.06820201 0.2045201 0.13585798 0.25962743
-0.32995793 -0.61330694 0.04681595 0.36999986 -0.7232263 -0.08706234 0.24114196 0.095705025
-0.5429107 0.19079913 0.40490502 0.18135843 -0.43919227 -0.24700214 -0.38472438 0.27669728
0.30478773 -0.029406656 -1.1436682 -0.9155767 -0.109503366 0.12799267 -0.36733133 0.52171314
00000000: 24c6 0ebf c3d5 6e3e 59f2 c9bd 48d1 a0be
00000010: 57c1 bc3e 2b54 823d 237c 753e a3a5 ba3b
00000020: ac24 a73d d629 3ebf 3741 07bf a456 c9bd
00000030: e22a ae3d 2a9a 35be 4eda 1dbe f160 59be
00000040: 10b2 593e b55b 25bf 2c3c 07be 93e7 1f3e
00000050: fe6e 06bf acb2 183e 2c81 a33e 4c67 383e
00000060: e407 413e 095b 8a3e 6fa0 323e 246b 5b3e
00000070: 0adf 27bd 1f20 0ebe c232 343d ccd9 a73e
00000080: 04e6 d43c 588c 2bbf ef15 eebe d6ac 3e3e
00000090: 4c16 963e c0d1 9dbe da3f 20bf 67e4 c73e
000000a0: c091 22be b3b1 ca3d 27cb f93d f5eb 8bbe
000000b0: c161 a7be 2e50 363e c093 c93d 42b5 0dbf
000000c0: 82ee af3e 6bc6 593e f3c0 02bf be48 c8be
000000d0: 5b64 b23e cbea 29be 7fe1 c5be d14d 1e3e
000000e0: 9417 143f 030f a5bd 87bd 5c3e 0e08 743e
000000f0: d0b4 eabe bf70 14bf 042b a9be 5627 31bf
00000100: dbc5 f9be 023c ac3e 8516 0f3e 7d08 4abf
00000110: aafd 063e 3ccb 713e cfc8 57bc 6538 a53e
00000120: 8ae1 f2be 8d9b 23bf b925 2ebe 77bf 623e
00000130: 3877 0ebd 53f9 a73e 87b3 3f3e 1d5f 5c3e
00000140: 81c5 77bf 760f bdbe 2db4 c13e b060 083f
00000150: bb4e 30bc bade 393e 1d06 3abf 80c8 ca3e
00000160: e03a 15bf 4f39 2a3d ba2d aa3d eb2f 00bf
00000170: 266f 7dbf 8434 4c3e 83de 453f a09f 1a3f
00000180: bb3d ed3d 012b 1dbf c450 02be fdd8 16bf
00000190: db4c 5b3e 92bc da3d a60b 213f 4544 723e
000001a0: 577f a4bb 7532 8fbe 06b3 203e ca48 32bd
000001b0: 4204 4bbf 5150 85be eda5 34bf b4ef 2fbf
000001c0: 45ee 5b3d a37f 9c3d c01c 5bbe d882 edbe
000001d0: fe0f 0a3e 2b9c b7bf 5b7e 143e 958e 2fbf
000001e0: 7c2c aebd 9e8f e93e c083 8bbf e152 643e
000001f0: 52f2 e13c d22e f13d 2829 0abf 92a1 76bd
00000200: 39d4 0a3e d72a 313e a1ec 133e 754d 743f
00000210: 684c 3a3e d883 d23d e841 18bf cd0a 253f
00000220: d40c 063e c657 eb3e e322 a73e ae44 ffbd
00000230: f74d 9d3e fd90 ebbe dc19 6cbe 877a 7e3d
00000240: d4d4 ae3d 8666 983d 32c8 243f ed63 20bf
00000250: f86b 193f 638e 1f3e 8057 43bf c934 cebe
00000260: a58e 1dbf 0cc6 06be 4795 b03e 1a24 7bbe
00000270: fb20 d93e bf0d 3e3e 92f2 ecbc 9033 67bf
00000280: 25a1 b93e 50d3 303f 2a5c cdbe 7fcb 9e3e
00000290: 9613 83be 31f9 51bf 95f6 1c3e 651d aabe
000002a0: f357 c13e bb5d a23d 3860 04bf 0b32 ccbe
000002b0: 46cd b63d 0943 4c3e fcf2 173e 989f 253e
000002c0: 81eb fabe 4931 673e a345 07bf 1a13 b5be
000002d0: 4398 a43d e241 67bf ee4e afbe 82d7 0dbf
000002e0: 0cde 193e bb47 ab3e 3b17 42bf 3236 e03d
000002f0: 3e63 a53b 857b 49bf 4ff4 9a3e 86aa 0c3e
00000300: 5ec2 4c3e 5a1a 933d f13e 32bf 0be4 4abe
00000310: ca2f 4abd 3ffc 5a3e 2dd4 603d 6e70 bb3e
00000320: a616 043e 3e5b dbbd 37e5 b3be 4667 4e3e
00000330: b90e ac3e 74ea 8fbe c32b 08be 2285 2bbf
00000340: a966 3f3e 7999 473e d450 2ebf 06e9 e6be
00000350: d3f5 b23e 033e 443d a317 cd3e 55e2 08bf
00000360: 6b4c 1c3e 56cb 543e 7f70 08bf e3be 68be
00000370: c19d 94bf a8e0 bb3e 6581 0d3e 1f64 ccbb
00000380: 5176 db3e 0e52 c2be 555b a5be c13b 233e
00000390: 7fad 8b3d b86d 513e 5b1e 0b3e e3ed 843e
000003a0: 3ff0 a8be af01 1dbf 15c2 3f3d 9f70 bd3e
000003b0: 5c25 39bf bd4d b2bd ebed 763e ff00 c43d
000003c0: 32fc 0abf d960 433e b64f cf3e 06b6 393e
000003d0: cfdd e0be 21ee 7cbe 98fa c4be 44ab 8d3e
000003e0: 230d 9c3e 3ae6 f0bc b863 92bf 3c63 6abf
000003f0: 4d43 e0bd 8310 033e da12 bcbe fe8e 053f

f7.bias f4 [10]
0.06857359 -0.012765237 -0.04408794 -0.054926105 -0.09898627 -0.01633035 -0.008538489 0.05610983
-0.14760631 0.14520437
00000000: 4f70 8c3d 4925 51bc 8e95 34bd 32fa 60bd
00000010: 50b9 cabd 3ac7 85bc 05e5 0bbc 6cd3 653d
00000020: 1c26 17be 74b0 143e
